…
 'get_dropout': 0.0,
 'global_test_all_zero': False,
 'gpus': 0,
 'hidden_dims': (256, 128),
 'lamda': 0.8,
 'log_dir': 'result\\global-10-fold\\Fdataset\\CSL',
 'loss_fn': 'focal',
 'lr': 0.0005,
 'model': 'CSL',
 'n_disease': 313,
 'n_drug': 593,
 'n_splits': 10,
 'negative_slope': 0.01,
 'neighbor_embedding_dim': 128,
 'pos_weight': 95.02121055354371,
 'profiler': False,
 'seed': 918,
 'separate': False,
 'size_u': 593,
 'size_v': 313,
 'split_mode': 'global',
 'time_stamp': 'Thu Jun  2 15:00:30 2022',
 'train_fill_unknown': True}
[06/02 15:00:30][INFO] WBNCF:  165: CSL(
  (drug_embedding_compress): Linear(in_features=593, out_features=256, bias=False)
  (disease_embedding_compress): Linear(in_features=313, out_features=256, bias=False)
  (bgcn_encoder): NeighborEmbedding(
    (shutcut): Linear(in_features=256, out_features=128, bias=True)
    (bgnn): BGCNA(256, 128)
    (dropout): Dropout(p=0.4, inplace=False)
  )
  (drug_bgcn_encoder): NeighborEmbedding(
    (shutcut): Linear(in_features=593, out_features=128, bias=True)
    (bgnn): BGCNA(593, 128)
    (dropout): Dropout(p=0.4, inplace=False)
  )
  (disease_bgcn_encoder): NeighborEmbedding(
    (shutcut): Linear(in_features=313, out_features=128, bias=True)
    (bgnn): BGCNA(313, 128)
    (dropout): Dropout(p=0.4, inplace=False)
  )
  (drug_att_encoder): GraphAttentionLayer (593 -> 128)
  (disease_att_encoder): GraphAttentionLayer (313 -> 128)
  (interaction_encoder): InteractionEmbedding(
    (drug_project): Linear(in_features=593, out_features=256, bias=False)
    (disease_project): Linear(in_features=313, out_features=256, bias=False)
    (dropout): Dropout(p=0.4, inplace=False)
  )
  (decoder): InteractionDecoder(
    (decoder): Sequential(
      (0): Linear(in_features=512, out_features=256, bias=True)
      (1): ReLU(inplace=True)
      (2): Dropout(p=0.4, inplace=False)
      (3): Linear(in_features=256, out_features=128, bias=True)
      (4): ReLU(inplace=True)
      (5): Dropout(p=0.4, inplace=False)
      (6): Linear(in_features=128, out_features=1, bias=True)
      (7): Sigmoid()
    )
  )
)
[06/02 15:00:30][INFO] WBNCF:  167: begin train fold 0/10
[06/02 17:12:59][INFO] WBNCF:  169: end train fold 0/10
[06/02 17:13:04][INFO] WBNCF:   77: eval time cost: 0.5155034065246582
[06/02 17:13:04][INFO] WBNCF:   85: save time cost: 0.015622615814208984
[06/02 17:13:04][INFO] WBNCF:  180: 0/10 folds: {'aupr': 0.5425893628863034, 'auroc': 0.9303329524228601, 'lagcn_aupr': 0.5406016029028916, 'lagcn_auc': 0.9303110736802269, 'lagcn_f1_score': 0.54320985, 'lagcn_accuracy': 0.99202675, 'lagcn_recall': 0.45360824, 'lagcn_specificity': 0.9977134, 'lagcn_precision': 0.6769231}
…
