…
 'get_dropout': 0.0,
 'global_test_all_zero': False,
 'gpus': 0,
 'hidden_dims': (64, 32),
 'lamda': 0.8,
 'log_dir': 'result\\global-10-fold\\Fdataset\\CSL',
 'loss_fn': 'focal',
 'lr': 0.0005,
 'model': 'CSL',
 'n_disease': 313,
 'n_drug': 593,
 'n_splits': 10,
 'negative_slope': 0.01,
 'neighbor_embedding_dim': 32,
 'pos_weight': 95.02121055354371,
 'profiler': False,
 'seed': 918,
 'separate': False,
 'size_u': 593,
 'size_v': 313,
 'split_mode': 'global',
 'time_stamp': 'Wed Jun  1 08:38:56 2022',
 'train_fill_unknown': True}
[06/01 08:38:57][INFO] WBNCF:  165: CSL(
  (drug_embedding_compress): Linear(in_features=593, out_features=64, bias=False)
  (disease_embedding_compress): Linear(in_features=313, out_features=64, bias=False)
  (bgcn_encoder): NeighborEmbedding(
    (shutcut): Linear(in_features=64, out_features=32, bias=True)
    (bgnn): BGCNA(64, 32)
    (dropout): Dropout(p=0.4, inplace=False)
  )
  (drug_bgcn_encoder): NeighborEmbedding(
    (shutcut): Linear(in_features=593, out_features=32, bias=True)
    (bgnn): BGCNA(593, 32)
    (dropout): Dropout(p=0.4, inplace=False)
  )
  (disease_bgcn_encoder): NeighborEmbedding(
    (shutcut): Linear(in_features=313, out_features=32, bias=True)
    (bgnn): BGCNA(313, 32)
    (dropout): Dropout(p=0.4, inplace=False)
  )
  (drug_att_encoder): GraphAttentionLayer (593 -> 32)
  (disease_att_encoder): GraphAttentionLayer (313 -> 32)
  (interaction_encoder): InteractionEmbedding(
    (drug_project): Linear(in_features=593, out_features=64, bias=False)
    (disease_project): Linear(in_features=313, out_features=64, bias=False)
    (dropout): Dropout(p=0.4, inplace=False)
  )
  (decoder): InteractionDecoder(
    (decoder): Sequential(
      (0): Linear(in_features=128, out_features=64, bias=True)
      (1): ReLU(inplace=True)
      (2): Dropout(p=0.4, inplace=False)
      (3): Linear(in_features=64, out_features=32, bias=True)
      (4): ReLU(inplace=True)
      (5): Dropout(p=0.4, inplace=False)
      (6): Linear(in_features=32, out_features=1, bias=True)
      (7): Sigmoid()
    )
  )
)
[06/01 08:38:57][INFO] WBNCF:  167: begin train fold 0/10
[06/01 09:28:47][INFO] WBNCF:  169: end train fold 0/10
[06/01 09:28:52][INFO] WBNCF:   77: eval time cost: 0.593646764755249
[06/01 09:28:52][INFO] WBNCF:   85: save time cost: 0.0
[06/01 09:28:52][INFO] WBNCF:  180: 0/10 folds: {'aupr': 0.5308096045832087, 'auroc': 0.9333845392255468, 'lagcn_aupr': 0.5285731283744222, 'lagcn_auc': 0.9333618175083935, 'lagcn_f1_score': 0.5308642, 'lagcn_accuracy': 0.9918112, 'lagcn_recall': 0.44329897, 'lagcn_specificity': 0.99760455, 'lagcn_precision': 0.6615385}
…
