…
 'get_dropout': 0.0,
 'global_test_all_zero': False,
 'gpus': 0,
 'hidden_dims': (512, 256),
 'lamda': 0.8,
 'log_dir': 'result\\global-10-fold\\Fdataset\\CSL',
 'loss_fn': 'focal',
 'lr': 0.0005,
 'model': 'CSL',
 'n_disease': 313,
 'n_drug': 593,
 'n_splits': 10,
 'negative_slope': 0.01,
 'neighbor_embedding_dim': 256,
 'pos_weight': 95.02121055354371,
 'profiler': False,
 'seed': 918,
 'separate': False,
 'size_u': 593,
 'size_v': 313,
 'split_mode': 'global',
 'time_stamp': 'Mon Jun 13 09:32:31 2022',
 'train_fill_unknown': True}
[06/13 09:32:31][INFO] WBNCF:  165: CSL(
  (drug_embedding_compress): Linear(in_features=593, out_features=512, bias=False)
  (disease_embedding_compress): Linear(in_features=313, out_features=512, bias=False)
  (bgcn_encoder): NeighborEmbedding(
    (shutcut): Linear(in_features=512, out_features=256, bias=True)
    (bgnn): BGCNA(512, 256)
    (dropout): Dropout(p=0.4, inplace=False)
  )
  (drug_bgcn_encoder): NeighborEmbedding(
    (shutcut): Linear(in_features=593, out_features=256, bias=True)
    (bgnn): BGCNA(593, 256)
    (dropout): Dropout(p=0.4, inplace=False)
  )
  (disease_bgcn_encoder): NeighborEmbedding(
    (shutcut): Linear(in_features=313, out_features=256, bias=True)
    (bgnn): BGCNA(313, 256)
    (dropout): Dropout(p=0.4, inplace=False)
  )
  (drug_att_encoder): GraphAttentionLayer (593 -> 256)
  (disease_att_encoder): GraphAttentionLayer (313 -> 256)
  (interaction_encoder): InteractionEmbedding(
    (drug_project): Linear(in_features=593, out_features=512, bias=False)
    (disease_project): Linear(in_features=313, out_features=512, bias=False)
    (dropout): Dropout(p=0.4, inplace=False)
  )
  (decoder): InteractionDecoder(
    (decoder): Sequential(
      (0): Linear(in_features=1024, out_features=512, bias=True)
      (1): ReLU(inplace=True)
      (2): Dropout(p=0.4, inplace=False)
      (3): Linear(in_features=512, out_features=256, bias=True)
      (4): ReLU(inplace=True)
      (5): Dropout(p=0.4, inplace=False)
      (6): Linear(in_features=256, out_features=1, bias=True)
      (7): Sigmoid()
    )
  )
)
[06/13 09:32:31][INFO] WBNCF:  167: begin train fold 0/10
[06/13 09:59:43][INFO] WBNCF:  169: end train fold 0/10
[06/13 09:59:46][INFO] WBNCF:   77: eval time cost: 0.7616994380950928
[06/13 09:59:46][INFO] WBNCF:   85: save time cost: 0.0
[06/13 09:59:46][INFO] WBNCF:  180: 0/10 folds: {'aupr': 0.5447404613434301, 'auroc': 0.9337878066740903, 'lagcn_aupr': 0.5433118944826283, 'lagcn_auc': 0.9337754689200849, 'lagcn_f1_score': 0.5424837, 'lagcn_accuracy': 0.9924577, 'lagcn_recall': 0.42783505, 'lagcn_specificity': 0.9984212, 'lagcn_precision': 0.7410714}
…
